pinn_model.pth (torch, 20503 bytes, 6 tensors)

0.weight f4 [64, 5]
0	0xbf2928b6	-0.66077745
1	0xbf233070	-0.63745785
2	0xbe45c5c3	-0.19313721
3	0xbf074e6b	-0.5285403
4	0xbebf77a4	-0.37395966
5	0x3dc626b8	0.09675354
6	0xbec31553	-0.38102207
7	0xbe0c6c5a	-0.13713208
8	0x3dd77bb0	0.105216384
9	0xbf2bbcd0	-0.6708498
10	0xbe7a6f23	-0.24456458
11	0x3e4259d7	0.18979584
12	0x3e84d4aa	0.259435
13	0x3deadd18	0.114679515
14	0x3f2437c3	0.64147586
15	0x3d70be0c	0.058774993
16	0xbd936cd3	-0.07198491
17	0xbdb233c1	-0.087012775
18	0xbea3b9e4	-0.3197776
19	0xbf566001	-0.8374024
20	0x3d8244c6	0.06360774
21	0xbe3a9f2e	-0.18224785
22	0xbde39d96	-0.111140415
23	0xbf9113ee	-1.1334207
24	0xbf66aefd	-0.9011076
25	0x3e5f94f3	0.21834163
26	0xbf285c2d	-0.6576565
27	0xbe8d44f9	-0.27591684
28	0xbf3e8c7c	-0.7443311
29	0xbecf2bb6	-0.40463036
30	0xbe77f93c	-0.24216169
31	0xbe87516d	-0.2642931
32	0x3e5c6a13	0.21524839
33	0xbf16f200	-0.5896301
34	0xbf3e230f	-0.74272245
35	0xbebf75b9	-0.37394503
36	0x3e80bc05	0.25143448
37	0x3eaf2c6d	0.34213582
38	0xbeeda16e	-0.46412224
39	0xbe308080	-0.17236519
40	0xbe0e2ac5	-0.13883503
41	0xbe7181cb	-0.23584668
42	0x3d3cfcf0	0.046139657
43	0xbf32dcfc	-0.69868445
44	0xbf8c6025	-1.0966841
45	0xbbec0436	-0.0072026504
46	0xbe928a1c	-0.28620994
47	0xbaaf637c	-0.0013381089
48	0x3f963755	1.1735636
49	0x3fc11e4e	1.5087373
50	0xbd170e40	-0.036878824
51	0x40075e8c	2.1151457
52	0x3d9fbe5c	0.0779998
53	0x3e5fdda8	0.21861899
54	0xbf244481	-0.6416703
55	0x3d70fb25	0.05883326
56	0xbf481a76	-0.78165376
57	0xbd2b7a44	-0.04186465
58	0x3e37650e	0.17909643
59	0x3e682aba	0.22672549
60	0x3dcf8c58	0.1013419
61	0xbf9a098b	-1.2034162
62	0xbbdf5434	-0.0068154577
63	0xbf64375b	-0.89146966
64	0xbf9be9d2	-1.2180731
65	0x3bac4f6d	0.0052584917
66	0x3faff7f4	1.3747544
67	0x3c6caa60	0.014444917
68	0xbfd38d70	-1.6527538
69	0xbfed3ded	-1.8534523
70	0x3c2e511e	0.010639457
71	0x3f5ff75a	0.87486804
72	0xbe70b439	-0.2350625
73	0x3e9d2cd9	0.3069828
74	0xbd048dcd	-0.032361794
75	0x3c11e1a6	0.008903896
76	0xbf0dbfa0	-0.5537052
77	0x3afbabe0	0.0019201003
78	0xbf9c2495	-1.2198664
79	0xbfd24fd4	-1.6430612
80	0x3e0ca38b	0.13734262
81	0xbecedc18	-0.40402293
82	0xbe328d0e	-0.1743662
83	0xbf6d13e8	-0.926085
84	0xbf83c903	-1.0295719
85	0x3bcf10a9	0.0063191247
86	0x3e7ba540	0.24574757
87	0x3c1fa3c2	0.009743633
88	0xbfa48700	-1.2853699
89	0xbfd787cb	-1.6838316
90	0xbda35182	-0.07974531
91	0x3f294153	0.661153
92	0x3d1daebd	0.03849672
93	0x3f0f37f0	0.5594473
94	0x3f9e63db	1.2374223
95	0xbe262851	-0.16226317
96	0x3e908b3a	0.2823122
97	0x3eac6059	0.33667257
98	0xbf195b7b	-0.59905213
99	0xbf54e7c3	-0.8316614
100	0xbbf235d6	-0.0073916717
101	0x3ec7c52d	0.3901762
102	0xbb1f2127	-0.0024281235
103	0x3fd4de13	1.6630272
104	0x3fb77b21	1.4334451
105	0x3eb02e14	0.34410155
106	0xbe81a098	-0.25317836
107	0xbeb9223e	-0.36158937
108	0xbdca7cc4	-0.098870784
109	0x3a9c7703	0.0011937324
110	0xbc71652b	-0.014733593
111	0x3fac42a5	1.3457838
112	0xbc156298	-0.009117745
113	0x3ea7d351	0.3277841
114	0x3f6f51aa	0.93483984
115	0x3eb7d6a5	0.35905948
116	0xbcfccb2a	-0.030858595
117	0xbea64aaf	-0.32478854
118	0x3ea6ea01	0.32600406
119	0xbe966466	-0.29373473
120	0xbd8ad693	-0.06779208
121	0xbeb7a482	-0.35867697
122	0x3d6c195e	0.05764138
123	0xbf72d68d	-0.9485863
124	0xbf0436c0	-0.5164604
125	0xbdd07d65	-0.10180167
126	0xbf093491	-0.53595835
127	0x3c672e01	0.014110089
128	0x3fbc21b6	1.4697788
129	0x3fe5d834	1.7956605
130	0x3e1f54a1	0.15559627
131	0xbeeb7423	-0.45987043
132	0xbe658b25	-0.2241636
133	0x3ebc1445	0.36734214
134	0x3e6ef699	0.23336257
135	0xbf4fa42b	-0.81109875
136	0x3e8560e8	0.26050496
137	0x3eae35c3	0.34025392
138	0x3f2dcefc	0.6789396
139	0x3f75cc08	0.9601445
140	0xbd57181f	-0.052513238
141	0x3e39f7a0	0.18160868
142	0x3e09d672	0.1346071
143	0xc00931b9	-2.1436598
144	0xbfe3f292	-1.7808402
145	0x3e0c2d6e	0.13689205
146	0x3cc83c0b	0.024442693
147	0xbe16bf8f	-0.14721511
148	0xbed185ba	-0.40922338
149	0xbe9c0486	-0.304722
150	0x3e6d96d4	0.23202068
151	0x3f2192fd	0.6311491
152	0xbe4a2166	-0.19739303
153	0x3e8629f9	0.26203898
154	0x3e612532	0.21986845
155	0xbc06a2c7	-0.00821752
156	0xbf8d0437	-1.1016911
157	0xbb389c9c	-0.0028169518
158	0x3f979a03	1.1843876
159	0x3f8d0380	1.1016693
160	0x3cb45bec	0.022016488
161	0x3f2c0422	0.67193806
162	0x3b7193c6	0.0036861761
163	0xc01d925f	-2.4620588
164	0xbfec0d47	-1.8441552
165	0xbcc69e14	-0.0242453
166	0xbff6a65f	-1.9269522
167	0xbb643464	-0.0034821266
168	0x400e91ac	2.227641
169	0x400fe809	2.2485373
170	0x3dbec2c0	0.09314489
171	0xbdf8f260	-0.12155604
172	0xbdd7a76f	-0.10529982
173	0xbef37181	-0.47547534
174	0xbefb1ce9	-0.49045494
175	0xbc50d2af	-0.012745543
176	0x3e896c12	0.26840264
177	0x3c704803	0.014665606
178	0xbfb012fb	-1.3755792
179	0xbfa70d03	-1.3050846
180	0x3b0a354e	0.00210889
181	0x3e5e54f3	0.21712093
182	0x3bde9477	0.0067926007
183	0xbfa1c0c9	-1.2636958
184	0xbf89f42b	-1.0777639
185	0x3d037a8e	0.0320993
186	0x3f207d1d	0.6269091
187	0x3d2a7892	0.04161889
188	0xbe55d624	-0.2088247
189	0x3d3e2707	0.046423938
190	0xbf61a75b	-0.8814599
191	0xbf71ab6a	-0.9440218
192	0xbe28f382	-0.16499141
193	0xbd992ea5	-0.074796
194	0x3ec0eb5f	0.37679574
195	0x3e1c4c9e	0.15263602
196	0x3dcf5609	0.10123832
197	0xbe1de996	-0.15421137
198	0x3d975628	0.0738948
199	0xbd846cd7	-0.06466072
200	0x3e7670db	0.24066488
201	0x3dd52a8c	0.10408506
202	0xbe7e2d44	-0.24821955
203	0x3cf0edf7	0.029410345
204	0x3dc629a9	0.09675915
205	0xbeb9fc93	-0.3632551
206	0xbdb353a1	-0.08756185
207	0x3eae66a2	0.34062678
208	0x3dbc4214	0.09192291
209	0x3ef36314	0.47536528
210	0x3d974754	0.07386652
211	0xbdc2ce44	-0.09511998
212	0x3ddf7671	0.10911263
213	0x3ec91059	0.39270285
214	0x3f424d6c	0.75899386
215	0x3bf352c1	0.0074256365
216	0x3e8c1afe	0.27364343
217	0x3c2740d2	0.010208325
218	0xbfac7f14	-1.3476281
219	0xbf6beda8	-0.9215951
220	0xbbee139e	-0.007265522
221	0xbe919e6a	-0.28441173
222	0xbc1f9465	-0.00973997
223	0x3fcd37c9	1.6032649
224	0x3fbe24ff	1.485504
225	0xbe0fe480	-0.1405201
226	0xbf73777f	-0.9510421
227	0xbbcd3048	-0.006261859
228	0x3fd650ad	1.674337
229	0x3fc70312	1.5547812
230	0xbd54d956	-0.05196508
231	0xbf14b48e	-0.58088005
232	0xbd9792ad	-0.07401023
233	0xbf7ee609	-0.99569756
234	0xbf8248e7	-1.0178498
235	0x3dd39a50	0.10332167
236	0xbcb627d5	-0.02223579
237	0xbdcaa6fc	-0.09895131
238	0x3f3f4ecf	0.7472963
239	0x3f2566a8	0.64609766
240	0x3d27f4ab	0.041004818
241	0xbf271de7	-0.6528
242	0xbd71f6ec	-0.059073374
243	0xbfacbc13	-1.3494896
244	0xbfead645	-1.834664
245	0x3dd1c0ba	0.10241838
246	0xbd4d473c	-0.050116763
247	0xbd816092	-0.063172475
248	0xbf2ea01c	-0.6821306
249	0xbf73210c	-0.949723
250	0x3c126bf9	0.0089368755
251	0x3f10e733	0.5660278
252	0x3bd25903	0.0064193024
253	0xbfe8c4c6	-1.818505
254	0xbf7a9244	-0.97879434
255	0x3ebb6584	0.36600888

0.bias f4 [64]
0	0xbf06c968	-0.5265107
1	0xbee42e3b	-0.4456652
2	0x3f3a264c	0.72714686
3	0xbf5b33f2	-0.8562614
4	0xbeb35fb9	-0.35033968
5	0xbf6f8788	-0.9356618
6	0xbe6d6f5e	-0.23187014
7	0x3e8ee053	0.2790552
8	0xbfa28c97	-1.2699155
9	0x3f681ffa	0.9067379
10	0xbf03b8f4	-0.5145409
11	0x3d53b3f3	0.051685285
12	0xbf4713ff	-0.77764887
13	0xc01308f9	-2.2974226
14	0xbce9bcbf	-0.028532384
15	0xbfe8e51c	-1.8194919
16	0xbf6f8885	-0.9356769
17	0xbfbd86af	-1.4806727
18	0x3fa7ce1e	1.3109777
19	0xbf692557	-0.910726
20	0x3f85d4fa	1.045562
21	0xbefd26b6	-0.49443597
22	0x3ec4ac91	0.38412908
23	0x3ebd38cf	0.36957404
24	0xbf14b860	-0.58093834
25	0x3f9355cb	1.1510557
26	0x3f649fc0	0.8930626
27	0x3f6a1f86	0.9145435
28	0xbfca98e4	-1.5827909
29	0xbf511a1e	-0.81680477
30	0x3f7b93ef	0.98272604
31	0x3fbb469e	1.4630926
32	0xc029c5ed	-2.6527054
33	0x400376d5	2.054128
34	0xbf2a578d	-0.6653984
35	0xbfa800db	-1.3125261
36	0xbfc75ba6	-1.5574844
37	0xbf17efba	-0.5935017
38	0x3f044f57	0.51683563
39	0x3eb47817	0.3524787
40	0x3e57f2ee	0.21088764
41	0x3f29731f	0.66191286
42	0x3e4ba2a7	0.19886266
43	0xbfb35fc0	-1.4013596
44	0x3feeb3cd	1.8648621
45	0x4006bb4b	2.1051815
46	0xbf90b31e	-1.1304662
47	0xbd8f0193	-0.06982722
48	0xbfa64de9	-1.2992526
49	0xbf38f306	-0.72245824
50	0xbfe2d840	-1.7722244
51	0x3fa34151	1.2754308
52	0xbfff0594	-1.9923577
53	0xbc895d2a	-0.016768057
54	0x3f8e42a2	1.1114085
55	0x3c8f8785	0.017520675
56	0x3e3af1c9	0.18256296
57	0xbf978efc	-1.184051
58	0xbfcf6c7c	-1.6204982
59	0xbf8ac14f	-1.0840243
60	0x3ee208cc	0.44147336
61	0xbf19c0dc	-0.60059905
62	0xbf84697e	-1.0344694
63	0xbfb48139	-1.4101936

2.weight f4 [64, 64]
0	0xbe69532e	-0.22785637
1	0xbf2dfd38	-0.67964506
2	0x3de7e4c6	0.11322932
3	0xbf71b7b4	-0.94420934
4	0xbd8f91e9	-0.07010252
5	0xbe01240b	-0.12611406
6	0x3db54073	0.08850183
7	0x3dcec064	0.10095289
8	0xbe89f049	-0.26941136
9	0x3f3605b8	0.71102476
10	0x3e6fc430	0.23414683
11	0x3c3a3aa8	0.011366524
12	0x3d8ce36f	0.06879317
13	0xbefa966b	-0.48942885
14	0xbe283bc3	-0.16429047
15	0xbf4f7187	-0.81032604
16	0xbe6bb0f1	-0.23016717
17	0xbf03d0e3	-0.5149061
18	0xbe0b64a1	-0.13612606
19	0x3e5234e6	0.20527992
20	0x3f6c3196	0.9226316
21	0xbdd05dfd	-0.10174177
22	0x3d64b2b7	0.0558345
23	0xbce90b89	-0.028447883
24	0xbdb43eaa	-0.08801015
25	0xbe4190d8	-0.1890291
26	0x3cec55f6	0.028849583
27	0xbe2bbc27	-0.16770993
28	0x3e624414	0.22096282
29	0xbe7cdb19	-0.24692954
30	0xbdb2b972	-0.08726777
31	0x3e9a507c	0.3013953
32	0x3e6f07ab	0.23342769
33	0xbe5327df	-0.20620678
34	0xbeb66c84	-0.35629666
35	0x3e61b708	0.22042477
36	0x3e5d068f	0.21584533
37	0x3e1803df	0.14845227
38	0xbda7a364	-0.08185461
39	0xbdf0593d	-0.11735771
40	0xbd867b95	-0.0656654
41	0x3dd87b6d	0.105704166
42	0x3e7370ac	0.2377345
43	0xbe6f0afd	-0.23344035
44	0x3f2d43d7	0.6768164
45	0xbe89eb47	-0.26937315
46	0xbd70cdd1	-0.05879003
47	0x39f6b883	0.00047058248
48	0xbfb6f131	-1.4292356
49	0x3e898c52	0.26864868
50	0xbef0b124	-0.47010148
51	0x3e22f41e	0.15913436
52	0x3e1c8fce	0.15289232
53	0xbdc6199f	-0.096728556
54	0x3dcb1df4	0.099178225
55	0x3e220974	0.15823919
56	0x3c2d11d6	0.010563334
57	0xbe947f77	-0.29003498
58	0xbdce3644	-0.10068944
59	0x3e0766b8	0.13222778
60	0xbe425bf9	-0.18980397
61	0x3e2b1eb5	0.16710933
62	0xbe5c724a	-0.21527973
63	0xbf2915b2	-0.6604873
64	0x3e2968c5	0.16543873
65	0x3da05aad	0.07829795
66	0x3d7e78e7	0.06212702
67	0x3ea6454f	0.32474753
68	0x3e6968e3	0.22793917
69	0x3d9174ba	0.07102342
70	0xbde73b77	-0.11290639
71	0xbe627410	-0.22114587
72	0x3e4a30ba	0.1974515
73	0xbe5612b9	-0.2090558
74	0xbe51052c	-0.20412129
75	0x3e24a49a	0.16078416
76	0xbe042441	-0.12904455
77	0x3ecacde5	0.3961021
78	0x3e3017b5	0.17196544
79	0x3f214890	0.63001347
80	0x3e07f5c2	0.13277343
81	0x3ed52179	0.416271
82	0x3bb15e8d	0.0054128827
83	0xbca9bd55	-0.020720163
84	0xbe8994cc	-0.26871336
85	0x3d53337e	0.05156278
86	0xbe10d0ce	-0.14142153
87	0x3de28cf8	0.11062044
88	0xbd0e6cde	-0.034771793
89	0x3e680670	0.22658706
90	0xbe303158	-0.17206323
91	0x3cf4a4fc	0.029863827
92	0xbe0b9787	-0.13632022
93	0xbe3970e0	-0.18109465
94	0x3e67d877	0.22641169
95	0xbf30e2e6	-0.6909622
96	0x3cc61a32	0.024182413
97	0x3e3bed57	0.18352257
98	0x3eed37bd	0.46331587
99	0xbdc6db12	-0.09709753
100	0xbe4d08f9	-0.20022954
101	0xbe582782	-0.21108821
102	0x3d69f7ec	0.057121202
103	0x3ea905bf	0.33012196
104	0x3e3f29d4	0.186683
105	0xbe64c913	-0.22342329
106	0xbe3e8976	-0.18607125
107	0x3e55c73d	0.20876785
108	0xbe82e712	-0.25566918
109	0x3d89a89e	0.06721614
110	0x3e47d055	0.19513066
111	0x3ea45fbb	0.32104287
112	0x3ee6a737	0.4504945
113	0xbe461a81	-0.19346048
114	0x3f081bca	0.531674
115	0xbe6e6b72	-0.23283175
116	0x3dbb241e	0.09137748
117	0x3c9b5690	0.018962175
118	0xbe129b23	-0.14316992
119	0xbe9454fa	-0.28971082
120	0x3d88be1a	0.06676884
121	0x3d27ce3a	0.040968157
122	0x3f014e9d	0.5051058
123	0x3dc940bc	0.098268
124	0xbd4dd475	-0.050251443
125	0xbd26341f	-0.04057705
126	0x3e60447d	0.21901126
127	0x3f052ea7	0.5202431
128	0x3d25e9f3	0.040506314
129	0xbe7185ca	-0.23586193
130	0x3a4567bb	0.00075304107
131	0x3dbb9fe6	0.091613576
132	0x3b352c0e	0.0027644667
133	0x3cf37263	0.02971763
134	0x3dd52bb3	0.104087256
135	0x3cd31acd	0.025769616
136	0xbe273ae1	-0.16331054
137	0xbf638391	-0.8887263
138	0x3e2fe0f9	0.17175664
139	0x3efa4a46	0.4888479
140	0x3e3adecd	0.18249054
141	0xbe9c26fb	-0.3049849
142	0xbe00ed2a	-0.12590471
143	0x3f4da4aa	0.8032938
144	0x3c4e2dde	0.012584178
145	0x3dff9eac	0.12481436
146	0xbeb4be5c	-0.35301483
147	0x3dfcc4a5	0.123421945
148	0xbef53eef	-0.47899577
149	0x3d762d67	0.060101893
150	0xbe52f1c2	-0.20600036
151	0xbd5b0e97	-0.05348071
152	0x3f94e502	1.1632388
153	0xbe2a8102	-0.16650775
154	0xbd70ec0e	-0.05881887
155	0xbe9d7747	-0.30755064
156	0x3e05be86	0.1306096
157	0xbd39fab9	-0.045405123
158	0xbdbc53ac	-0.09195647
159	0xbf66e125	-0.90187293
160	0xbf223e22	-0.6337606
161	0x3ef8a183	0.48560724
162	0x3e6a48ee	0.22879383
163	0xbd20f2af	-0.03929394
164	0x3daa6e66	0.08321838
165	0x3e89b1e0	0.2689352
166	0xbe1c04b3	-0.15236168
167	0xbc011b4b	-0.007880042
168	0xbd988a66	-0.074482724
169	0xbd106277	-0.035250153
170	0x3e75067c	0.23928255
171	0x3e47bbe4	0.19505268
172	0xbeb5dd42	-0.3552037
173	0xbe7f7ba0	-0.24949503
174	0xbe457268	-0.19281924
175	0xbeec0be3	-0.4610282
176	0x3fa7edd9	1.311946
177	0xbdc296b4	-0.095014006
178	0xbe4520ba	-0.19250765
179	0x3e365328	0.17805159
180	0x3da3b52c	0.0799354
181	0xbce753ba	-0.028238166
182	0x3e266dec	0.1625287
183	0x3c3e6702	0.011621239
184	0xbda7edb6	-0.08199637
185	0xbe1cd427	-0.15315305
186	0x3eb84e03	0.35997018
187	0xbd1090a6	-0.035294197
188	0x3e9c592f	0.30536792
189	0xbf4662bc	-0.77494407
190	0xbd7e7af4	-0.062128976
191	0x3fae438a	1.3614361
192	0xbe58b64c	-0.2116329
193	0x3c646934	0.013941098
194	0x3dfc460c	0.12318048
195	0xbe24cb68	-0.16093218
196	0x3dce6f4c	0.10079822
197	0xbe7f3d47	-0.24925719
198	0x3d6fea8b	0.058573287
199	0x3d202bf4	0.039104417
200	0xbdef63d9	-0.11688966
201	0x3ddcd2a1	0.10782362
202	0x3da043da	0.07825442
203	0xbd112c23	-0.035442483
204	0x3cdeb2cb	0.027184865
205	0xbe72be0e	-0.23705313
206	0xbe0ae3a7	-0.13563405
207	0x3ebd4660	0.36967754
208	0xbeb73517	-0.35782692
209	0xbe91203e	-0.2834491
210	0x3e543f76	0.20727333
211	0xbe0ca5a6	-0.13735065
212	0xbea53c3c	-0.32272518
213	0xbde2414a	-0.11047609
214	0x3e338abc	0.17533392
215	0x3d30abc1	0.043132547
216	0x3e72a5e5	0.23696096
217	0xbe08f982	-0.1337643
218	0x3e1dc415	0.1540683
219	0xbdf4aeb8	-0.119473875
220	0x3c927bfd	0.017881388
221	0xbe8c03b9	-0.2734659
222	0x3ca9deb0	0.020736068
223	0x3f130386	0.5742725
224	0x3bc65198	0.006052207
225	0xbd90ca0f	-0.070697896
226	0xbf2beb60	-0.6715603
227	0x3eb2e686	0.349415
228	0x3ee8f6bb	0.4550074
229	0x3e142949	0.14468874
230	0xbcc3434b	-0.023835799
231	0x3de6e785	0.112746276
232	0xbcf484b0	-0.029848427
233	0x3c884fb1	0.016639562
234	0x3e13d97a	0.1443843
235	0xbd9dbb7a	-0.07701774
236	0x3d883267	0.066502385
237	0x3d389074	0.045059636
238	0x3ca21871	0.019787045
239	0xbe729cfd	-0.23692699
240	0xbe88b033	-0.2669693
241	0xbe0b7828	-0.13620055
242	0xbeb15e4d	-0.34642258
243	0x3e3fc337	0.18726812
244	0xbe2f5978	-0.17123973
245	0xbe52835d	-0.20557924
246	0x3dff32fd	0.12460897
247	0xbdf4004b	-0.119141184
248	0x3bcdda7e	0.00628215
249	0xbe41ffe4	-0.18945271
250	0xbf55400e	-0.83300865
251	0xbddb4145	-0.107058086
252	0x3e295fd1	0.16540457
253	0xbe459bf5	-0.19297774
254	0xbe30a85a	-0.17251721
255	0xbef8c3ae	-0.48586792

2.bias f4 [64]
0	0x3d58b163	0.052903544
1	0xbe0f3632	-0.13985518
2	0x3d2ec6a9	0.042669926
3	0x3df0f25d	0.11764977
4	0xbe009bfe	-0.12559506
5	0x3e77557b	0.24153702
6	0xbe6a0310	-0.22852731
7	0xbe4ff743	-0.20309167
8	0xbcc6379f	-0.024196444
9	0xbc24b567	-0.010053015
10	0x3e6a3415	0.2287143
11	0x3c76310c	0.015026342
12	0xbe0a9cdd	-0.13536401
13	0x3d1d8148	0.03845337
14	0x3d9f0ab7	0.077657156
15	0xbd9e80a8	-0.07739383
16	0x3e4f80a9	0.20263924
17	0xbdc9b0b8	-0.098481596
18	0xbe976a8c	-0.29573476
19	0x3db6d5a0	0.089274645
20	0xbe60310b	-0.21893708
21	0xbdcbad30	-0.09945142
22	0x3df7e2fd	0.121038415
23	0x3e0ff397	0.14057766
24	0xbd343408	-0.043994933
25	0xbe5dfeec	-0.21679276
26	0xbd04c98b	-0.03241877
27	0x3e79220e	0.24329397
28	0x3e04adb5	0.12956889
29	0xbd934a6f	-0.071919315
30	0x3e5e173f	0.21688555
31	0xbe6748e9	-0.22586407
32	0xbdac055a	-0.08399458
33	0xbdae5121	-0.08511568
34	0xbe1e4829	-0.15457214
35	0x3da32425	0.079658784
36	0x3e74edca	0.23918834
37	0xbe6a8ca4	-0.22905213
38	0x3cc0d8d1	0.023540886
39	0x3e241769	0.16024555
40	0xbd0df936	-0.034661494
41	0xbd54de0f	-0.051969584
42	0xbbae8b6a	-0.005326678
43	0x3dd852bf	0.105626576
44	0xbdff81fe	-0.12475966
45	0x3db08d15	0.08620659
46	0xbdeca7c4	-0.11555436
47	0xbdce30b2	-0.10067882
48	0xbe34c760	-0.1765418
49	0x3cc4312f	0.023949234
50	0x3de3ec14	0.11129013
51	0xbd095b76	-0.03353449
52	0x3dd0a1ad	0.10187087
53	0xbe0147c9	-0.1262504
54	0x3e8f7016	0.28015202
55	0x3dafe932	0.085894
56	0xbdcc4a89	-0.09975154
57	0x3e4df9cf	0.20114826
58	0x3b34ffe2	0.0027618338
59	0x3e287137	0.16449438
60	0x3e89cc62	0.26913744
61	0xbdaf7f14	-0.0856916
62	0xbd7b9985	-0.061425705
63	0x3e31b887	0.17355548

4.weight f4 [2, 64]
0	0xbfc0c071	-1.5058728
1	0x3fcf3c4d	1.6190277
2	0x3fcdca63	1.6077389
3	0xbfd8876e	-1.691633
4	0x3fc83c15	1.5643336
5	0x3fb8cd42	1.443764
6	0xbfcf48b5	-1.6194063
7	0x3fc32976	1.5247028
8	0xbfb4f4de	-1.4137228
9	0x3fc4d8b0	1.5378628
10	0x3fbae2d2	1.460047
11	0x3fbce57d	1.4757534
12	0xbfdd22fa	-1.7276299
13	0x3fd7933c	1.6841807
14	0xbfbd2516	-1.4776943
15	0xbfd50b1e	-1.6644018
16	0xbfd879ce	-1.6912172
17	0xbfccfb92	-1.6014273
18	0xbfa8d49d	-1.3189884
19	0xbfe9aa05	-1.8255011
20	0x3fc69465	1.5514036
21	0x3fc04d55	1.50236
22	0xbfc2bf96	-1.5214717
23	0x3fd474c5	1.6598135
24	0x3fcbd363	1.5923885
25	0x3fc445bf	1.5333785
26	0x3fd490ce	1.6606691
27	0x3fb0d214	1.3814111
28	0x3fd91fa8	1.6962786
29	0x3fb69a7a	1.4265893
30	0x3fb1d6ba	1.3893654
31	0x3fc131ff	1.5093383
32	0xbfcf591b	-1.6199068
33	0xbfcdb9be	-1.6072309
34	0xbfe6c51e	-1.8028905
35	0x3fdfb2ed	1.7476479
36	0xbfc7a7e4	-1.5598111
37	0xbf99b652	-1.2008765
38	0xbfd06932	-1.6282103
39	0x3fc873b1	1.5660306
40	0xbfca52ef	-1.5806559
41	0x3fb728f9	1.4309379
42	0xbfd85fe0	-1.6904259
43	0xbfbf1fce	-1.4931581
44	0x3fcd7452	1.6051123
45	0xbfc54ac5	-1.5413443
46	0x3fbe0d58	1.4847822
47	0x3fbb01f0	1.4609966
48	0xbf99b3bb	-1.2007974
49	0xbfc48e5d	-1.5355946
50	0x3f97e09a	1.1865418
51	0x3fba583b	1.4558176
52	0xbfd7e650	-1.6867161
53	0xbfc7c7ee	-1.5607889
54	0x3fa67721	1.3005105
55	0xbfc6e1a3	-1.5537609
56	0x3fba6fad	1.4565331
57	0x3fc8128c	1.563066
58	0x3fed3788	1.8532572
59	0xbff803fd	-1.9376217
60	0x3f978cc8	1.1839838
61	0x4005bf33	2.0897949
62	0xbfd625b4	-1.6730256
63	0xbfd4e63a	-1.663276
64	0x3d9d3aa2	0.07677199
65	0x3db15c43	0.08660176
66	0x3fb04f66	1.377423
67	0xbe240d7c	-0.16020769
68	0xbf554abb	-0.83317155
69	0xbfe100a7	-1.7578324
70	0xbac5650c	-0.0015060022
71	0xbeb44e93	-0.35216197
72	0xbfaacddc	-1.3344073
73	0x3e2e91a2	0.17047742
74	0xbff46c59	-1.9095565
75	0xbf57095c	-0.83998656
76	0xbfa39851	-1.2780858
77	0x3ffc705f	1.9721793
78	0x3f0319ea	0.51211417
79	0xbf8665de	-1.0499837
80	0xbf9d93cf	-1.2310733
81	0xbf264dcb	-0.6496245
82	0x401a3d52	2.4099927
83	0xbfc0d653	-1.5065407
84	0x3cd23eae	0.025664654
85	0xbeb6aeaf	-0.35680148
86	0x3e4f5240	0.2024622
87	0x3fb6c391	1.4278432
88	0xbe222fa5	-0.15838487
89	0xbf048206	-0.517609
90	0x3f91fbee	1.1405008
91	0xc01983ae	-2.398662
92	0x3ff4ad82	1.911545
93	0xbef45141	-0.47718242
94	0xc0234b9d	-2.55149
95	0xbe8dc9bc	-0.27692974
96	0xbf8c2612	-1.0949118
97	0xbfa20a69	-1.2659427
98	0xbfc0dff7	-1.5068349
99	0x3fb7de58	1.4364729
100	0x3eb5af17	0.35485145
101	0x403014c4	2.7512674
102	0xbffefd0c	-1.9920974
103	0x3f82eb62	1.0228083
104	0xbf735dac	-0.95064807
105	0xbea1ecfb	-0.31626114
106	0xbf53b0a8	-0.8269143
107	0x3d34888e	0.04407554
108	0xbc6ab9bf	-0.014326512
109	0x3e356a66	0.17716369
110	0xbe99ef3b	-0.3006533
111	0xbe993036	-0.29919595
112	0x4033a1b1	2.8067439
113	0x3ecad10a	0.3961261
114	0xc033031e	-2.7970653
115	0xbeb3e6d8	-0.35137057
116	0xbd8edaee	-0.06975351
117	0x3f186a34	0.59537053
118	0xc00dc4a5	-2.2151272
119	0x3eb1c3ff	0.34719846
120	0xbe004f91	-0.12530352
121	0x3f4fa9e0	0.81118584
122	0x3fd681f4	1.6758409
123	0xbfc2926d	-1.5200936
124	0xc035ed1c	-2.842597
125	0x40059d40	2.0877228
126	0xbfac3c5d	-1.3455921
127	0xbd57b039	-0.052658293

4.bias f4 [2]
0	0x3f81da15	1.0144678
1	0xbe1a54e8	-0.15071452
